model/keypoint_classifier/keypoint_classifier.tflite (tflite, 6500 bytes, 6 tensors)

sequential/dense/BiasAdd/ReadVariableOp f4 [20]
00000000: c86d cabd 5bb7 993d 2b3f 86be 8d94 f43c
00000010: 7a8c c2be 3234 7cbe 61b4 bbbe 8242 50bd
00000020: 1796 933e d786 c8be 9cc2 9a3d a74e dd3d
00000030: d704 6dbd b6ae c5be aa82 f0bc b8b1 cc3d
00000040: 2917 b2bd a132 993e 11a1 28be fe05 6a3e
-0.0988422 0.075056754 -0.26220068 0.02985599 -0.379978 -0.24629286 -0.36661056 -0.050844677
0.28825447 -0.39165375 0.0755665 0.10806017 -0.057865944 -0.38609856 -0.02935918 0.09994835
-0.08695824 0.2992144 -0.16467692 0.22853848

sequential/dense_2/BiasAdd/ReadVariableOp f4 [3]
00000000: 89b4 a2bc 6b9f 9abe e017 753e
-0.019861476 -0.3019975 0.23934889

sequential/dense_1/BiasAdd/ReadVariableOp f4 [10]
00000000: 8295 173f aa83 e53e 8313 70be fdbb 28be
00000010: cb91 0f3f db99 353c 9e4c 883e 599a 133f
00000020: addf 6d3e 0864 95be
0.59212506 0.44827014 -0.23444943 -0.16477962 0.5608184 0.011084045 0.26620954 0.5765739
0.23229857 -0.2917788

sequential/dense/MatMul f4 [20, 42]
00000000: c881 c0bd a2cb 74be 48ce 7fbd f82a 3ebe
00000010: 1365 a9bd d9a2 b7be 70ec 9dbe 62f0 9abe
00000020: d06b cebe e6d4 bbbc 258d 2ebe 61e4 c3bd
00000030: 1aef c5bc fcb9 b03c 7c30 00be 3598 f23c
00000040: 416f e8bc 821a 203d b684 f4be c340 03be
00000050: a715 87be 9c93 663e 2ad1 b33e 4e49 143e
00000060: 87ba 983e ad79 4c3d 166b adbe 57be 253e
00000070: 16a2 69be 2daf 6b3d 725a ab3d a4eb 3d3e
00000080: 5d3e ef3d 5c4a 3f3e 7d2e 1e3d 6afc 283f
00000090: bc51 b5bd efa7 9f3e 6fe4 853d f599 133f
000000a0: 5694 54bd f202 bb3e 8efc 6bbe 641a 0cbe
000000b0: e6a1 4abe faae fbbe ff93 00be e79b 68be
000000c0: c453 04bd e997 99be e58a c0bc 541e f6be
000000d0: 5cb3 943e 47b4 e6bd 6119 b53e 3f94 793d
000000e0: 48b9 0ebd 8147 403c 8a86 7abe a1d9 603e
000000f0: 1594 143e d80f 4d3a 6a47 3d3e afad a93d
00000100: 8898 89be 6899 aa3d c520 a5be c5a8 043e
00000110: 3bd3 c03c 60d3 05be 37aa 4e3e dbfb d33d
00000120: 9d40 ffbd 6119 e23e b6d6 513e 1fdb f73c
00000130: b4ec c53e b9b4 c13d 53ce e33d ea64 de3e
00000140: 4af4 c6bd 4e6c 853e 5058 5f3e 8dec ed3e
00000150: d829 88be 5019 96bc ed31 d4be e00c 68be
00000160: 55b5 dcbe 3e6a c6bd fb76 0dbf e863 8abb
00000170: 75de 4bbf dc84 1abe 1d0d fdbd f1a2 26bc
00000180: fadc 083e 2e24 7d3d 16c7 c23d 7ffc 913b
00000190: b462 20bd 73f7 303d 7b46 293d 0bbc afbd
000001a0: 298b d13d c066 bd3d 4164 21be 5f74 693d
000001b0: 378e 19be fe4e 8d3d 2ab5 183e 4489 0e3e
000001c0: 1b13 e63d e02b e4bb 3a18 cf3d e1ab f03d
000001d0: bc99 2dbd 3b67 d4bd c3cd b4bc ef39 7d3e
000001e0: 41c8 703e f4dd df3b e12a 013f f099 0dbe
000001f0: 0e4d 053f 8540 29be 806c 6d3d 009e ac3c
00000200: e1fc f0bc 49f0 4f3e f8b3 51be b976 a73e
00000210: 4228 a63e 901d 803e ee27 c33e d37d 493e
00000220: c333 a43d 3f81 e8bc 4221 99be a018 8a3e
00000230: c120 dabd 1f78 0a3d a672 4cbe cc8c 52bc
00000240: a69d 833d bb2f 923d 55cc b83d e0fa 8bbd
00000250: 2f99 023e db38 abbe ea6f c2bd f964 583b
00000260: 2388 203e da59 9cbe d1ae 8fbe 9c01 2ebe
00000270: 4cdc d1bd fc2d 50bc 1457 c3bd 0a1f 87be
00000280: 241e 253d b9ec 05bf 4a57 df3c 0a1e 28bf
00000290: 4d58 53be b508 e5be 6515 59be a755 f1be
000002a0: dc97 43be 6c78 6c3e 1410 98bd fa34 f33e
000002b0: 1122 d2bd 2c3d 943e d330 86ba 6547 953e
000002c0: 03c6 623e 37fb 823e 23a1 9ebd d632 a03d
000002d0: 0374 4abe e9b3 0f3d 1059 c2bc 1a3f 153d
000002e0: 399e 7f3c d410 a6bc 3ed0 143e 2b6a c23d
000002f0: 2baf 33bd 6ac2 0d3d 8db6 ad3c d9a3 653d
00000300: 2d79 9e3d 379b 9ebc af4f 173e 7d37 873d
00000310: 0de3 b43c a239 b9bc 2b93 1bbe b920 44be
00000320: e404 92be a3c4 20bf 9f36 8a3e 5eb0 053e
00000330: f62f 493d dc58 62bc cf8a debd b617 dbbe
00000340: 9088 1dbe 9bfe ecbe 04d8 69be 2810 4d3d
00000350: 95d0 6b3e 37e4 a13e fc50 143f d623 2d3d
00000360: 0008 2f3f c7e7 18bd 0321 673f 5bb5 2a3c
00000370: 3650 983c 8cd7 a73d 956a 4b3d b594 be3c
00000380: ad3e 57be 76c8 abbb fb45 35bd a993 2a3c
00000390: 0742 d3bd f761 193e 670a b33d 1d36 aa3c
000003a0: 03c5 7b3e d49f ad3d 62cb 3b3e a73d fd3c
000003b0: aa8a 94bd adca 85bb 261b b6bd 7e5f 793d
000003c0: d614 c1be e93c a1bd c742 75be 43d1 55bc
000003d0: e8bb 2ebe 0204 503e 8fe1 b5be ffbf 103e
000003e0: 38a1 dbbe 4123 7ebe 65a2 efbe f75e 073c
000003f0: c0ba b53b 8c9d 72be 574a 1bbe 7c1f 1f3f
-0.09399754 -0.23905805 -0.062452585 -0.18571079 -0.082712315 -0.3586643 -0.3084445 -0.30261523
-0.4031663 -0.022928666 -0.1704603 -0.09565044 -0.024161864 0.02157306 -0.12518495 0.029613594
-0.028373362 0.03908778 -0.477575 -0.12817673 -0.26383707 0.22517246 0.35120517 0.14481089
0.2982981 0.049920727 -0.33870763 0.1618589 -0.22815737 0.057540108 0.083668604 0.18546921
0.11681817 0.1868071 0.038618553 0.66010153 -0.0885348 0.3118281 0.06537711 0.57656795
-0.051899277 0.36525685 -0.2304556 -0.13681942 -0.19788322 -0.49156934 -0.12556456 -0.22715722
-0.032306448 -0.2999871 -0.02350373 -0.48070014 0.2904309 -0.11264854 0.35370925 0.060932394
-0.034844667 0.011735798 -0.24465385 0.21958019 0.14509614 0.00078224903 0.18484274 0.08285081
-0.26874185 0.08330041 -0.32251564 0.12955005 0.023538223 -0.13068914 0.2018212 0.10350772
-0.12463496 0.44159988 0.20492062 0.030255852 0.38657153 0.09458298 0.111233376 0.43436366
-0.09714563 0.26059192 0.21811032 0.46469536 -0.26594424 -0.018322617 -0.4144434 -0.22661161
-0.43107095 -0.09688233 -0.55259675 -0.0042233355 -0.7963632 -0.15089744 -0.12356017 -0.010170684
0.13365546 0.06180208 0.09510629 0.0044551487 -0.03915663 0.043204736 0.04132698 -0.08580788
0.10231621 0.09248114 -0.157609 0.056995746 -0.14995657 0.06899832 0.14912859 0.1391955
0.11234113 -0.006963238 0.10112043 0.11751533 -0.04238294 -0.10371252 -0.022070771 0.24729131
0.23513891 0.006831879 0.50456053 -0.13828254 0.520707 -0.16528518 0.0579648 0.021071434
-0.029417457 0.20306505 -0.20478809 0.32707766 0.3245259 0.25022554 0.381164 0.19676904
0.08017685 -0.028381942 -0.29908186 0.26971912 -0.106507786 0.033805963 -0.1996561 -0.012850951
0.064265534 0.0713801 0.09023348 -0.0683496 0.12753747 -0.33441815 -0.09494002 0.0033019169
0.15676932 -0.305373 -0.28063062 -0.16992801 -0.102470964 -0.012706276 -0.09538093 -0.26390868
0.040311947 -0.52314335 0.027263302 -0.65670836 -0.20639153 -0.44733205 -0.21199568 -0.4713566
-0.19100899 0.23092812 -0.07424942 0.47501355 -0.10260404 0.2895292 -0.001023794 0.29156032
0.22145848 0.25582287 -0.07745578 0.07822196 -0.19770817 0.035083685 -0.023724109 0.03643713
0.015601688 -0.020271696 0.14532563 0.09492906 -0.043868225 0.034609236 0.021205211 0.05606446
0.07737956 -0.019361122 0.1477649 0.066023804 0.022080922 -0.02261049 -0.15192859 -0.19153108
-0.28519356 -0.62800044 0.26994798 0.1305556 0.049118005 -0.013815131 -0.108663194 -0.42791528
-0.15384126 -0.46288 -0.2283631 0.050064236 0.23028786 0.31619427 0.5793607 0.042270504
0.6837158 -0.037330415 0.90284747 0.010419215 0.018592935 0.08195409 0.04966219 0.023264268
-0.21020003 -0.0052424027 -0.04425619 0.0104111815 -0.10315328 0.14978777 0.087422185 0.020777756
0.24586873 0.084777504 0.18339303 0.030913187 -0.072530106 -0.0040829987 -0.08891897 0.060882084
-0.3771121 -0.07872946 -0.23951255 -0.01305038 -0.17063868 0.20314029 -0.3552365 0.1413574
-0.42896438 -0.24818136 -0.46803585 0.0082623875 0.005545944 -0.23692912 -0.15165077 0.62157416

sequential/dense_1/MatMul f4 [10, 20]
00000000: bcea 76be d582 b5be 6e67 45bf e6d2 5c3e
00000010: 2917 e8be 6531 15bd face 97be b9ab 04bf
00000020: ce56 163f 8e1c 28bf 5582 813d 6939 783e
00000030: 6738 c3bd 0259 19bf 9087 d1be 3f8c 9f3e
00000040: a915 c63d 1793 b23e 045a d4be ed55 ec3d
00000050: 83c3 d0bd 0169 b4be 6bc7 92be bc44 a73e
00000060: be2e a5be 1f51 14be 9092 0f3f 16d6 cdbe
00000070: 163e 833e 25a6 a0be 6980 023e 89aa ac3e
00000080: dfda 153f 4be7 6abe 201f e8be 3e57 8c3e
00000090: a45a d43e 75bc c1bc 3a39 1cbf a72e f73e
000000a0: afa1 77be 4e9a cabe 453b 2e3f 820e 983e
000000b0: 59d5 173f 35be 273f 446a 1d3f 65e9 dbbe
000000c0: f5f0 6e3c b2c1 483e 760b 12bf 8aa0 9f3e
000000d0: 29fb 29bc 5641 143f 1bfc ddbb 7ba6 52be
000000e0: a740 ab3e ae8b c4bd cb08 923e a3d2 48be
000000f0: 2740 4a3c c952 16be 814e 003e 96d5 ca3e
00000100: b4f8 883e d89e 1f3f dc59 fe3e 3186 e2bd
00000110: 3662 ba3d 57ea be3e d781 25bd a017 9b3e
00000120: e20c b13e c181 073f d063 17be 91ec 20be
00000130: f2aa d63e 9c31 edbe 4560 7b3e 33f8 a3be
00000140: 278b 313f 2711 3c3f 2394 95bc 974c 093e
00000150: da34 22bf 7516 0cbf 12ba e5be d285 b53e
00000160: a760 e7bd 4468 1ebf 3045 153f c488 5b3e
00000170: 7c52 e8bd 630c 49bf 5870 673f a956 093f
00000180: e12e 853d 45c0 183f 7719 923d 4f56 c13e
00000190: 3dab 28be 0287 1cbe fd35 28be 06c2 cf3d
000001a0: 454d abbd 018a 743d 7b93 0cbe e382 3c3e
000001b0: 7691 28be 45a4 f33e b0d6 8ebc 2a56 203f
000001c0: dc0f 913e e639 f23e a373 99bc 4fb3 833d
000001d0: edae cc3e 2ef6 113e e4e8 d1be aa63 a03d
000001e0: 6b10 98be 5375 a8be 4460 5bbe 8d5d 233f
000001f0: e787 dc3e 5078 e4bd 88a3 333f a5bb 8cbe
00000200: 242a 68be c697 c33e d248 3ebe c6e9 9b3e
00000210: 4741 c33e c160 0f3e b18d b8be ef0a 36bd
00000220: 12e1 f23e a819 aa3e c18e ac3b f904 0f3f
00000230: ff0e e3bd dfbb cabe d622 dfbe 601a 433d
00000240: c47f 13bf 0853 1fbf a640 85be af70 ef3c
00000250: 9d5f 053f 1cdb 2cbf fd2f 78be 5445 cc3d
00000260: 0a49 1d3e f01b 08bf ddbb 5bbe e993 b43e
00000270: 8af8 343e 8e40 e43d 2568 1abf bc54 f93d
00000280: 10b6 753d b885 553e 443a 183f 8a38 99be
00000290: 053d 71be fa49 3fbe 2c80 41bf 0879 213f
000002a0: 6f31 9dbe 8ffd f43e a64d 113f aa05 54be
000002b0: 1c69 fabe 62d8 84be ab49 2a3f 8a13 ad3e
000002c0: 9eb5 f5be 724f fd3e 6128 0c3f bb9a d43e
000002d0: 8a67 0a3f af43 15bd 9009 093f 3557 a33d
000002e0: 0570 983e 9a11 293f 8dd3 d23e c1da 4c3f
000002f0: d8ac 763e de49 3b3f de30 2e3f 3510 513e
00000300: 5751 3c3e ab74 393f 648d 403f 79a0 5e3e
00000310: 508a e93d d33a a23e 8dbd ce3e a01d ae3e
-0.24112982 -0.3545138 -0.77110946 0.21564826 -0.4533017 -0.03642406 -0.29650098 -0.5182453
0.58726203 -0.6566857 0.06323687 0.2424065 -0.09532242 -0.5990144 -0.40923738 0.31161687
0.096721 0.34877846 -0.41474926 0.115398265 -0.10193541 -0.35236362 -0.2866777 0.32669628
-0.32262224 -0.1448407 0.5608301 -0.40202397 0.25633305 -0.31376758 0.12744297 0.33723858
0.58537096 -0.22939794 -0.45336246 0.2741031 0.41475403 -0.023649434 -0.6102482 0.4827778
-0.24182771 -0.3957085 0.6805919 0.2969857 0.5930992 0.6552461 0.61490273 -0.42951503
0.014583816 0.19605139 -0.5704874 0.3117717 -0.010374823 0.57912195 -0.006774438 -0.2057132
0.33447763 -0.09596954 0.28522334 -0.19611602 0.012344397 -0.14680018 0.12529947 0.39616078
0.26752245 0.6235175 0.49677932 -0.11060751 0.091007635 0.37288162 -0.040407028 0.30291462
0.3458014 0.52932364 -0.14784169 -0.15715243 0.41927296 -0.4632691 0.24548443 -0.32025298
0.69352955 0.7346367 -0.018259114 0.13408123 -0.63361895 -0.54721767 -0.44868523 0.3545366
-0.11297732 -0.61877847 0.58308697 0.2143889 -0.11343858 -0.78534526 0.904058 0.5364786
0.06503082 0.5966838 0.07133763 0.3776116 -0.16471572 -0.15285876 -0.16426845 0.10144429
-0.08364347 0.059701923 -0.13728134 0.18409304 -0.16461739 0.47586265 -0.017436355 0.62631476
0.28332412 0.47309798 -0.018731898 0.06430685 0.39977208 0.14254066 -0.40997994 0.078315094
-0.29700026 -0.3290201 -0.21423441 0.6381462 0.43072435 -0.1115576 0.70171404 -0.2748691
-0.22672325 0.3820173 -0.18582466 0.30451792 0.3813574 0.14001752 -0.36045602 -0.04444402
0.4743734 0.332227 0.005266041 0.5586696 -0.11086845 -0.3959646 -0.43581265 0.047632575
-0.5761683 -0.6223607 -0.26025885 0.029228536 0.5209902 -0.67521834 -0.24237056 0.09974161
0.15359893 -0.5316763 -0.21458383 0.35269096 0.17672935 0.11145125 -0.6031516 0.12174365
0.05998808 0.20851791 0.59463906 -0.29925948 -0.23558433 -0.18680564 -0.755862 0.63075304
-0.30701777 0.478497 0.5675911 -0.20705286 -0.48908317 -0.25946337 0.6651866 0.3380397
-0.47990125 0.49474674 0.54749113 0.415243 0.5406424 -0.0364415 0.53530216 0.07975618
0.29772964 0.6604248 0.41177025 0.8002129 0.24089372 0.7315959 0.68043315 0.20416339
0.18390404 0.72443646 0.75215745 0.21740903 0.11403334 0.31685504 0.4037899 0.34006977

sequential/dense_2/MatMul f4 [3, 10]
00000000: 2402 483f 73ec b03e 3b0c 45bf 8f38 24bf
00000010: 5b88 0e3d 7af6 af3e 16c9 b03e 9bed 703f
00000020: 7161 babf 3f0b 89bf fa59 54bf e9db acbd
00000030: 391c 823f 7f50 51bd 0363 53bf c4c4 f83e
00000040: 435f 103f 4b6b 6fbf a09f c7be 53ad e3bd
00000050: 17ce dabe 89e6 62bf 598e 08bf 0d1e 3bbf
00000060: d989 193f 3351 1bbf 24bb 6abf fcc5 93be
00000070: f9a9 3a3e ffc3 89be
0.78128266 0.34555396 -0.7697179 -0.641488 0.034798007 0.34367734 0.34528416 0.9411256
-1.4560987 -1.0706557 -0.82949793 -0.08440382 1.0164863 -0.051102158 -0.82572955 0.4858762
0.5639536 -0.9352309 -0.38988972 -0.11117043 -0.4273536 -0.8863302 -0.53342205 -0.7309273
0.59975964 -0.60670775 -0.91691804 -0.28861988 0.18228902 -0.26907346
